…
      (conv3): Conv2d(512, 2048, kernel_size=(1, 1), stride=(1, 1), bias=False)
      (bn3): FrozenBatchNorm2d(2048, eps=1e-05)
      (relu): ReLU(inplace=True)
    )
  )
  (avgpool): AdaptiveAvgPool2d(output_size=(1, 1))
  (fc): Linear(in_features=2048, out_features=1000, bias=True)
)
==============================================================================================================
Layer (type:depth-idx)                                       Output Shape              Param #
==============================================================================================================
DistributedDataParallel                                      [100, 4]                  --
├─FasterRCNN: 1-1                                            [100, 4]                  --
│    └─GeneralizedRCNNTransform: 2-1                         [1, 3, 1504, 1024]        --
│    └─BackboneWithFPN: 2-2                                  [1, 256, 24, 16]          --
│    │    └─IntermediateLayerGetter: 3-1                     [1, 2048, 47, 32]         23,454,912
│    │    └─FeaturePyramidNetwork: 3-2                       [1, 256, 24, 16]          3,344,384
│    └─RegionProposalNetwork: 2-3                            [1000, 4]                 --
│    │    └─RPNHead: 3-3                                     [1, 3, 376, 256]          593,935
│    │    └─AnchorGenerator: 3-4                             [384672, 4]               --
│    └─Custom_roi_heads: 2-4                                 [100, 4]                  --
│    │    └─MultiScaleRoIAlign: 3-5                          [1000, 256, 7, 7]         --
│    │    └─TwoMLPHead: 3-6                                  [1000, 1024]              13,895,680
│    │    └─FastRCNNPredictor: 3-7                           [1000, 3]                 15,375
==============================================================================================================
Total params: 41,304,286
Trainable params: 41,304,286
Non-trainable params: 0
Total mult-adds (G): 302.81
==============================================================================================================
Input size (MB): 18.00
Forward/backward pass size (MB): 3547.18
Params size (MB): 165.22
…
